nohup: ignoring input
/home/liujiaqi/miniconda3/envs/dpl/lib/python3.9/site-packages/dgl/heterograph.py:92: DGLWarning: Recommend creating graphs by `dgl.graph(data)` instead of `dgl.DGLGraph(data)`.
  dgl_warning(
Net(
  (knowledge_emb): Embedding(835, 64)
  (exercise_emb): Embedding(835, 64)
  (student_emb): Embedding(10000, 64)
  (FusionLayer1): Fusion(
    (directed_gat): GraphLayer(
      (fc): Linear(in_features=64, out_features=64, bias=False)
      (attn_fc): Linear(in_features=128, out_features=1, bias=False)
    )
    (undirected_gat): GraphLayer(
      (fc): Linear(in_features=64, out_features=64, bias=False)
      (attn_fc): Linear(in_features=128, out_features=1, bias=False)
    )
    (e_to_k): GraphLayer(
      (fc): Linear(in_features=64, out_features=64, bias=False)
      (attn_fc): Linear(in_features=128, out_features=1, bias=False)
    )
    (k_to_e): GraphLayer(
      (fc): Linear(in_features=64, out_features=64, bias=False)
      (attn_fc): Linear(in_features=128, out_features=1, bias=False)
    )
    (e_to_u): GraphLayer(
      (fc): Linear(in_features=64, out_features=64, bias=False)
      (attn_fc): Linear(in_features=128, out_features=1, bias=False)
    )
    (u_to_e): GraphLayer(
      (fc): Linear(in_features=64, out_features=64, bias=False)
      (attn_fc): Linear(in_features=128, out_features=1, bias=False)
    )
    (k_attn_fc1): Linear(in_features=128, out_features=1, bias=True)
    (k_attn_fc2): Linear(in_features=128, out_features=1, bias=True)
    (k_attn_fc3): Linear(in_features=128, out_features=1, bias=True)
    (e_attn_fc1): Linear(in_features=128, out_features=1, bias=True)
    (e_attn_fc2): Linear(in_features=128, out_features=1, bias=True)
  )
  (FusionLayer2): Fusion(
    (directed_gat): GraphLayer(
      (fc): Linear(in_features=64, out_features=64, bias=False)
      (attn_fc): Linear(in_features=128, out_features=1, bias=False)
    )
    (undirected_gat): GraphLayer(
      (fc): Linear(in_features=64, out_features=64, bias=False)
      (attn_fc): Linear(in_features=128, out_features=1, bias=False)
    )
    (e_to_k): GraphLayer(
      (fc): Linear(in_features=64, out_features=64, bias=False)
      (attn_fc): Linear(in_features=128, out_features=1, bias=False)
    )
    (k_to_e): GraphLayer(
      (fc): Linear(in_features=64, out_features=64, bias=False)
      (attn_fc): Linear(in_features=128, out_features=1, bias=False)
    )
    (e_to_u): GraphLayer(
      (fc): Linear(in_features=64, out_features=64, bias=False)
      (attn_fc): Linear(in_features=128, out_features=1, bias=False)
    )
    (u_to_e): GraphLayer(
      (fc): Linear(in_features=64, out_features=64, bias=False)
      (attn_fc): Linear(in_features=128, out_features=1, bias=False)
    )
    (k_attn_fc1): Linear(in_features=128, out_features=1, bias=True)
    (k_attn_fc2): Linear(in_features=128, out_features=1, bias=True)
    (k_attn_fc3): Linear(in_features=128, out_features=1, bias=True)
    (e_attn_fc1): Linear(in_features=128, out_features=1, bias=True)
    (e_attn_fc2): Linear(in_features=128, out_features=1, bias=True)
  )
  (prednet_full1): Linear(in_features=128, out_features=64, bias=False)
  (prednet_full2): Linear(in_features=128, out_features=64, bias=False)
  (prednet_full3): Linear(in_features=64, out_features=1, bias=True)
)
training model...
train--1/50 [9/1090] loss: 0.6300977945327759
train--1/50 [19/1090] loss: 0.6988082826137543
train--1/50 [29/1090] loss: 0.6963798046112061
train--1/50 [39/1090] loss: 0.6943078458309173
train--1/50 [49/1090] loss: 0.6928424298763275
train--1/50 [59/1090] loss: 0.6899481356143952
train--1/50 [69/1090] loss: 0.6865097939968109
train--1/50 [79/1090] loss: 0.6829243063926697
…
