nohup: ignoring input
/home/liujiaqi/miniconda3/envs/dpl/lib/python3.9/site-packages/dgl/heterograph.py:92: DGLWarning: Recommend creating graphs by `dgl.graph(data)` instead of `dgl.DGLGraph(data)`.
  dgl_warning(
Net(
  (knowledge_emb): Embedding(122, 64)
  (exercise_emb): Embedding(17677, 64)
  (student_emb): Embedding(2548, 64)
  (FusionLayer1): Fusion(
    (undirected_gat): GraphLayer(
      (fc): Linear(in_features=64, out_features=64, bias=False)
      (attn_fc): Linear(in_features=128, out_features=1, bias=False)
    )
    (e_to_k): GraphLayer(
      (fc): Linear(in_features=64, out_features=64, bias=False)
      (attn_fc): Linear(in_features=128, out_features=1, bias=False)
    )
    (k_to_e): GraphLayer(
      (fc): Linear(in_features=64, out_features=64, bias=False)
      (attn_fc): Linear(in_features=128, out_features=1, bias=False)
    )
    (e_to_u): GraphLayer(
      (fc): Linear(in_features=64, out_features=64, bias=False)
      (attn_fc): Linear(in_features=128, out_features=1, bias=False)
    )
    (u_to_e): GraphLayer(
      (fc): Linear(in_features=64, out_features=64, bias=False)
      (attn_fc): Linear(in_features=128, out_features=1, bias=False)
    )
    (k_attn_fc1): Linear(in_features=128, out_features=1, bias=True)
    (k_attn_fc2): Linear(in_features=128, out_features=1, bias=True)
    (k_attn_fc3): Linear(in_features=128, out_features=1, bias=True)
    (e_attn_fc1): Linear(in_features=128, out_features=1, bias=True)
    (e_attn_fc2): Linear(in_features=128, out_features=1, bias=True)
  )
  (FusionLayer2): Fusion(
    (undirected_gat): GraphLayer(
      (fc): Linear(in_features=64, out_features=64, bias=False)
      (attn_fc): Linear(in_features=128, out_features=1, bias=False)
    )
    (e_to_k): GraphLayer(
      (fc): Linear(in_features=64, out_features=64, bias=False)
      (attn_fc): Linear(in_features=128, out_features=1, bias=False)
    )
    (k_to_e): GraphLayer(
      (fc): Linear(in_features=64, out_features=64, bias=False)
      (attn_fc): Linear(in_features=128, out_features=1, bias=False)
    )
    (e_to_u): GraphLayer(
      (fc): Linear(in_features=64, out_features=64, bias=False)
      (attn_fc): Linear(in_features=128, out_features=1, bias=False)
    )
    (u_to_e): GraphLayer(
      (fc): Linear(in_features=64, out_features=64, bias=False)
      (attn_fc): Linear(in_features=128, out_features=1, bias=False)
    )
    (k_attn_fc1): Linear(in_features=128, out_features=1, bias=True)
    (k_attn_fc2): Linear(in_features=128, out_features=1, bias=True)
    (k_attn_fc3): Linear(in_features=128, out_features=1, bias=True)
    (e_attn_fc1): Linear(in_features=128, out_features=1, bias=True)
    (e_attn_fc2): Linear(in_features=128, out_features=1, bias=True)
  )
  (prednet_full1): Linear(in_features=128, out_features=64, bias=False)
  (prednet_full2): Linear(in_features=128, out_features=64, bias=False)
  (prednet_full3): Linear(in_features=64, out_features=1, bias=True)
)
training model1...
train--1/20 [10/2006] loss: 0.692230898141861
train--1/20 [20/2006] loss: 0.6901618421077729
train--1/20 [30/2006] loss: 0.6896768748760224
train--1/20 [40/2006] loss: 0.6875122904777526
train--1/20 [50/2006] loss: 0.6852786600589752
train--1/20 [60/2006] loss: 0.6851333796977996
train--1/20 [70/2006] loss: 0.682716292142868
train--1/20 [80/2006] loss: 0.6796888947486878
…
