nohup: ignoring input
/home/liujiaqi/miniconda3/envs/dpl/lib/python3.9/site-packages/dgl/heterograph.py:92: DGLWarning: Recommend creating graphs by `dgl.graph(data)` instead of `dgl.DGLGraph(data)`.
  dgl_warning(
Net(
  (knowledge_emb): Embedding(835, 64)
  (exercise_emb): Embedding(835, 64)
  (student_emb): Embedding(10000, 64)
  (FusionLayer1): Fusion(
    (directed_gat): GraphLayer(
      (fc): Linear(in_features=64, out_features=64, bias=False)
      (attn_fc): Linear(in_features=128, out_features=1, bias=False)
    )
    (undirected_gat): GraphLayer(
      (fc): Linear(in_features=64, out_features=64, bias=False)
      (attn_fc): Linear(in_features=128, out_features=1, bias=False)
    )
    (e_to_k): GraphLayer(
      (fc): Linear(in_features=64, out_features=64, bias=False)
      (attn_fc): Linear(in_features=128, out_features=1, bias=False)
    )
    (k_to_e): GraphLayer(
      (fc): Linear(in_features=64, out_features=64, bias=False)
      (attn_fc): Linear(in_features=128, out_features=1, bias=False)
    )
    (e_to_u): GraphLayer(
      (fc): Linear(in_features=64, out_features=64, bias=False)
      (attn_fc): Linear(in_features=128, out_features=1, bias=False)
    )
    (u_to_e): GraphLayer(
      (fc): Linear(in_features=64, out_features=64, bias=False)
      (attn_fc): Linear(in_features=128, out_features=1, bias=False)
    )
    (k_attn_fc1): Linear(in_features=128, out_features=1, bias=True)
    (k_attn_fc2): Linear(in_features=128, out_features=1, bias=True)
    (k_attn_fc3): Linear(in_features=128, out_features=1, bias=True)
    (e_attn_fc1): Linear(in_features=128, out_features=1, bias=True)
    (e_attn_fc2): Linear(in_features=128, out_features=1, bias=True)
  )
  (FusionLayer2): Fusion(
    (directed_gat): GraphLayer(
      (fc): Linear(in_features=64, out_features=64, bias=False)
      (attn_fc): Linear(in_features=128, out_features=1, bias=False)
    )
    (undirected_gat): GraphLayer(
      (fc): Linear(in_features=64, out_features=64, bias=False)
      (attn_fc): Linear(in_features=128, out_features=1, bias=False)
    )
    (e_to_k): GraphLayer(
      (fc): Linear(in_features=64, out_features=64, bias=False)
      (attn_fc): Linear(in_features=128, out_features=1, bias=False)
    )
    (k_to_e): GraphLayer(
      (fc): Linear(in_features=64, out_features=64, bias=False)
      (attn_fc): Linear(in_features=128, out_features=1, bias=False)
    )
    (e_to_u): GraphLayer(
      (fc): Linear(in_features=64, out_features=64, bias=False)
      (attn_fc): Linear(in_features=128, out_features=1, bias=False)
    )
    (u_to_e): GraphLayer(
      (fc): Linear(in_features=64, out_features=64, bias=False)
      (attn_fc): Linear(in_features=128, out_features=1, bias=False)
    )
    (k_attn_fc1): Linear(in_features=128, out_features=1, bias=True)
    (k_attn_fc2): Linear(in_features=128, out_features=1, bias=True)
    (k_attn_fc3): Linear(in_features=128, out_features=1, bias=True)
    (e_attn_fc1): Linear(in_features=128, out_features=1, bias=True)
    (e_attn_fc2): Linear(in_features=128, out_features=1, bias=True)
  )
  (prednet_full1): Linear(in_features=128, out_features=64, bias=False)
  (prednet_full2): Linear(in_features=128, out_features=64, bias=False)
  (prednet_full3): Linear(in_features=64, out_features=1, bias=True)
)
training model...
train--1/20 [9/2180] loss: 0.6314660251140595
train--1/20 [19/2180] loss: 0.6990398168563843
train--1/20 [29/2180] loss: 0.6987041294574737
train--1/20 [39/2180] loss: 0.6974698007106781
train--1/20 [49/2180] loss: 0.6952928066253662
train--1/20 [59/2180] loss: 0.6935216307640075
train--1/20 [69/2180] loss: 0.6913239300251007
train--1/20 [79/2180] loss: 0.6899960160255432
…
